…
I1019 00:38:00.261889 127004 net.cpp:322] The NetState phase (0) differed from the phase (1) specified by a rule in layer data
I1019 00:38:00.261937 127004 net.cpp:322] The NetState phase (0) differed from the phase (1) specified by a rule in layer testLoss
I1019 00:38:00.262130 127004 net.cpp:58] Initializing net from parameters:
name: "videoNetCNN_cr5_model_10172016.prototxt"
state {
  phase: TRAIN
  level: 0
  stage: ""
}
layer {
  name: "data"
  type: "HDF5Data"
  top: "data"
  top: "label"
  include {
    phase: TRAIN
  }
  hdf5_data_param {
    source: "trainCNN_cr5.txt"
    batch_size: 100
  }
}
layer {
  name: "fc1"
  type: "InnerProduct"
  bottom: "data"
  top: "fc1"
  param {
    lr_mult: 1
    decay_mult: 1
  }
  param {
    lr_mult: 2
    decay_mult: 0
  }
  inner_product_param {
    num_output: 10240
    weight_filler {
      type: "gaussian"
      std: 0.01
    }
    bias_filler {
      type: "constant"
      value: 0
    }
  }
}
layer {
  name: "reshape"
  type: "Reshape"
  bottom: "fc1"
  top: "reshape"
  reshape_param {
    shape {
      dim: 0
      dim: 1
      dim: 32
      dim: 32
    }
  }
}
layer {
  name: "conv1"
  type: "Convolution"
  bottom: "reshape"
  top: "conv1"
  param {
    lr_mult: 1
  }
  param {
    lr_mult: 0.1
  }
  convolution_param {
    num_output: 128
    pad: 0
    kernel_size: 1
    stride: 1
    weight_filler {
      type: "gaussian"
      std: 0.1
    }
    bias_filler {
      type: "constant"
      value: 0
    }
  }
}
layer {
  name: "relu1"
  type: "ReLU"
  bottom: "conv1"
  top: "relu1"
}
layer {
  name: "conv2"
  type: "Convolution"
  bottom: "relu1"
  top: "conv2"
  param {
    lr_mult: 1
  }
  param {
    lr_mult: 0.1
  }
  convolution_param {
    num_output: 64
    pad: 0
    kernel_size: 1
    stride: 1
    weight_filler {
      type: "gaussian"
      std: 0.1
    }
    bias_filler {
      type: "constant"
      value: 0
    }
  }
}
layer {
  name: "relu2"
  type: "ReLU"
  bottom: "conv2"
  top: "relu2"
}
layer {
  name: "conv3"
  type: "Convolution"
  bottom: "relu2"
  top: "conv3"
  param {
    lr_mult: 0.1
  }
  param {
    lr_mult: 0.1
  }
  convolution_param {
    num_output: 32
    pad: 1
    kernel_size: 3
    stride: 1
    weight_filler {
      type: "gaussian"
      std: 0.1
    }
    bias_filler {
      type: "constant"
      value: 0
    }
  }
}
layer {
  name: "relu3"
  type: "ReLU"
  bottom: "conv3"
  top: "relu3"
}
layer {
  name: "conv4"
  type: "Convolution"
  bottom: "relu3"
  top: "conv4"
  param {
    lr_mult: 1
  }
  param {
    lr_mult: 0.1
  }
  convolution_param {
    num_output: 32
    pad: 1
    kernel_size: 3
    stride: 1
    weight_filler {
      type: "gaussian"
      std: 0.1
    }
    bias_filler {
      type: "constant"
      value: 0
    }
  }
}
layer {
  name: "relu4"
  type: "ReLU"
  bottom: "conv4"
  top: "relu4"
}
layer {
  name: "conv5"
  type: "Convolution"
  bottom: "relu4"
  top: "conv5"
  param {
    lr_mult: 1
  }
  param {
    lr_mult: 0.1
  }
  convolution_param {
    num_output: 16
    pad: 1
    kernel_size: 3
    stride: 1
    weight_filler {
      type: "gaussian"
      std: 0.1
    }
    bias_filler {
      type: "constant"
      value: 0
    }
  }
}
layer {
  name: "relu5"
  type: "ReLU"
  bottom: "conv5"
  top: "relu5"
}
layer {
  name: "conv6"
  type: "Convolution"
  bottom: "relu5"
  top: "conv6"
  param {
    lr_mult: 0.1
  }
  param {
    lr_mult: 0.1
  }
  convolution_param {
    num_output: 16
    pad: 1
    kernel_size: 3
    stride: 1
    weight_filler {
      type: "gaussian"
      std: 0.1
    }
    bias_filler {
      type: "constant"
      value: 0
    }
  }
}
layer {
  name: "relu6"
  type: "ReLU"
  bottom: "conv6"
  top: "relu6"
}
layer {
  name: "conv7"
  type: "Convolution"
  bottom: "relu6"
  top: "conv7"
  param {
    lr_mult: 0.1
  }
  param {
    lr_mult: 0.1
  }
  convolution_param {
    num_output: 1
    pad: 1
    kernel_size: 3
    stride: 1
    weight_filler {
      type: "gaussian"
      std: 0.1
    }
    bias_filler {
      type: "constant"
      value: 0
    }
  }
}
layer {
  name: "trainLoss"
  type: "EuclideanLoss"
  bottom: "conv7"
  bottom: "label"
  top: "trainLoss"
  include {
    phase: TRAIN
  }
}
I1019 00:38:00.263186 127004 layer_factory.hpp:77] Creating layer data
I1019 00:38:00.263553 127004 net.cpp:100] Creating Layer data
I1019 00:38:00.263582 127004 net.cpp:408] data -> data
I1019 00:38:00.264251 127004 net.cpp:408] data -> label
I1019 00:38:00.264291 127004 hdf5_data_layer.cpp:79] Loading list of HDF5 filenames from: trainCNN_cr5.txt
…
I1019 00:38:24.531579 127045 net.cpp:322] The NetState phase (0) differed from the phase (1) specified by a rule in layer data
I1019 00:38:24.531642 127045 net.cpp:322] The NetState phase (0) differed from the phase (1) specified by a rule in layer testLoss
I1019 00:38:24.531944 127045 net.cpp:58] Initializing net from parameters:
name: "videoNetCNN_cr5_model_10172016.prototxt"
state {
  phase: TRAIN
  level: 0
  stage: ""
}
layer {
  name: "data"
  type: "HDF5Data"
  top: "data"
  top: "label"
  include {
    phase: TRAIN
  }
  hdf5_data_param {
    source: "trainCNN_cr5.txt"
    batch_size: 100
  }
}
layer {
  name: "fc1"
  type: "InnerProduct"
  bottom: "data"
  top: "fc1"
  param {
    lr_mult: 1
    decay_mult: 1
  }
  param {
    lr_mult: 2
    decay_mult: 0
  }
  inner_product_param {
    num_output: 10240
    weight_filler {
      type: "gaussian"
      std: 0.01
    }
    bias_filler {
      type: "constant"
      value: 0
    }
  }
}
layer {
  name: "reshape"
  type: "Reshape"
  bottom: "fc1"
  top: "reshape"
  reshape_param {
    shape {
      dim: 0
      dim: 1
      dim: 32
      dim: 32
    }
  }
}
layer {
  name: "conv1"
  type: "Convolution"
  bottom: "reshape"
  top: "conv1"
  param {
    lr_mult: 1
  }
  param {
    lr_mult: 0.1
  }
  convolution_param {
    num_output: 128
    pad: 0
    kernel_size: 1
    stride: 1
    weight_filler {
      type: "gaussian"
      std: 0.1
    }
    bias_filler {
      type: "constant"
      value: 0
    }
  }
}
layer {
  name: "relu1"
  type: "ReLU"
  bottom: "conv1"
  top: "relu1"
}
layer {
  name: "conv2"
  type: "Convolution"
  bottom: "relu1"
  top: "conv2"
  param {
    lr_mult: 1
  }
  param {
    lr_mult: 0.1
  }
  convolution_param {
    num_output: 64
    pad: 0
    kernel_size: 1
    stride: 1
    weight_filler {
      type: "gaussian"
      std: 0.1
    }
    bias_filler {
      type: "constant"
      value: 0
    }
  }
}
layer {
  name: "relu2"
  type: "ReLU"
  bottom: "conv2"
  top: "relu2"
}
layer {
  name: "conv3"
  type: "Convolution"
  bottom: "relu2"
  top: "conv3"
  param {
    lr_mult: 0.1
  }
  param {
    lr_mult: 0.1
  }
  convolution_param {
    num_output: 32
    pad: 1
    kernel_size: 3
    stride: 1
    weight_filler {
      type: "gaussian"
      std: 0.1
    }
    bias_filler {
      type: "constant"
      value: 0
    }
  }
}
layer {
  name: "relu3"
  type: "ReLU"
  bottom: "conv3"
  top: "relu3"
}
layer {
  name: "conv4"
  type: "Convolution"
  bottom: "relu3"
  top: "conv4"
  param {
    lr_mult: 1
  }
  param {
    lr_mult: 0.1
  }
  convolution_param {
    num_output: 32
    pad: 1
    kernel_size: 3
    stride: 1
    weight_filler {
      type: "gaussian"
      std: 0.1
    }
    bias_filler {
      type: "constant"
      value: 0
    }
  }
}
layer {
  name: "relu4"
  type: "ReLU"
  bottom: "conv4"
  top: "relu4"
}
layer {
  name: "conv5"
  type: "Convolution"
  bottom: "relu4"
  top: "conv5"
  param {
    lr_mult: 1
  }
  param {
    lr_mult: 0.1
  }
  convolution_param {
    num_output: 16
    pad: 1
    kernel_size: 3
    stride: 1
    weight_filler {
      type: "gaussian"
      std: 0.1
    }
    bias_filler {
      type: "constant"
      value: 0
    }
  }
}
layer {
  name: "relu5"
  type: "ReLU"
  bottom: "conv5"
  top: "relu5"
}
layer {
  name: "conv6"
  type: "Convolution"
  bottom: "relu5"
  top: "conv6"
  param {
    lr_mult: 0.1
  }
  param {
    lr_mult: 0.1
  }
  convolution_param {
    num_output: 16
    pad: 1
    kernel_size: 3
    stride: 1
    weight_filler {
      type: "gaussian"
      std: 0.1
    }
    bias_filler {
      type: "constant"
      value: 0
    }
  }
}
layer {
  name: "relu6"
  type: "ReLU"
  bottom: "conv6"
  top: "relu6"
}
layer {
  name: "conv7"
  type: "Convolution"
  bottom: "relu6"
  top: "conv7"
  param {
    lr_mult: 0.1
  }
  param {
    lr_mult: 0.1
  }
  convolution_param {
    num_output: 1
    pad: 1
    kernel_size: 3
    stride: 1
    weight_filler {
      type: "gaussian"
      std: 0.1
    }
    bias_filler {
      type: "constant"
      value: 0
    }
  }
}
layer {
  name: "trainLoss"
  type: "EuclideanLoss"
  bottom: "conv7"
  bottom: "label"
  top: "trainLoss"
  include {
    phase: TRAIN
  }
}
I1019 00:38:24.533803 127045 layer_factory.hpp:77] Creating layer data
I1019 00:38:24.533850 127045 net.cpp:100] Creating Layer data
I1019 00:38:24.533871 127045 net.cpp:408] data -> data
I1019 00:38:24.533941 127045 net.cpp:408] data -> label
I1019 00:38:24.533982 127045 hdf5_data_layer.cpp:79] Loading list of HDF5 filenames from: trainCNN_cr5.txt
I1019 00:38:24.534047 127045 hdf5_data_layer.cpp:93] Number of HDF5 files: 1
I1019 00:38:24.536041 127045 hdf5.cpp:32] Datatype class: H5T_FLOAT
I1019 00:39:07.833525 127045 net.cpp:150] Setting up data
I1019 00:39:07.833659 127045 net.cpp:157] Top shape: 100 1 1 204 (20400)
I1019 00:39:07.833680 127045 net.cpp:157] Top shape: 100 1 32 32 (102400)
I1019 00:39:07.833694 127045 net.cpp:165] Memory required for data: 491200
I1019 00:39:07.833716 127045 layer_factory.hpp:77] Creating layer fc1
I1019 00:39:07.833766 127045 net.cpp:100] Creating Layer fc1
I1019 00:39:07.833786 127045 net.cpp:434] fc1 <- data
I1019 00:39:07.833814 127045 net.cpp:408] fc1 -> fc1
I1019 00:39:07.955987 127045 net.cpp:150] Setting up fc1
I1019 00:39:07.956024 127045 net.cpp:157] Top shape: 100 10240 (1024000)
I1019 00:39:07.956035 127045 net.cpp:165] Memory required for data: 4587200
I1019 00:39:07.956059 127045 layer_factory.hpp:77] Creating layer reshape
I1019 00:39:07.956084 127045 net.cpp:100] Creating Layer reshape
I1019 00:39:07.956096 127045 net.cpp:434] reshape <- fc1
I1019 00:39:07.956110 127045 net.cpp:408] reshape -> reshape
F1019 00:39:07.956169 127045 reshape_layer.cpp:87] Check failed: top[0]->count() == bottom[0]->count() (102400 vs. 1024000) output count must match input count
…
I1019 00:42:37.713068 127143 net.cpp:322] The NetState phase (0) differed from the phase (1) specified by a rule in layer data
I1019 00:42:37.713099 127143 net.cpp:322] The NetState phase (0) differed from the phase (1) specified by a rule in layer testLoss
I1019 00:42:37.713240 127143 net.cpp:58] Initializing net from parameters:
name: "videoNetCNN_cr5_model_10172016.prototxt"
state {
  phase: TRAIN
  level: 0
  stage: ""
}
layer {
  name: "data"
  type: "HDF5Data"
  top: "data"
  top: "label"
  include {
    phase: TRAIN
  }
  hdf5_data_param {
    source: "trainCNN_cr5.txt"
    batch_size: 100
  }
}
layer {
  name: "fc1"
  type: "InnerProduct"
  bottom: "data"
  top: "fc1"
  param {
    lr_mult: 1
    decay_mult: 1
  }
  param {
    lr_mult: 2
    decay_mult: 0
  }
  inner_product_param {
    num_output: 1024
    weight_filler {
      type: "gaussian"
      std: 0.01
    }
    bias_filler {
      type: "constant"
      value: 0
    }
  }
}
layer {
  name: "reshape"
  type: "Reshape"
  bottom: "fc1"
  top: "reshape"
  reshape_param {
    shape {
      dim: 0
      dim: 1
      dim: 32
      dim: 32
    }
  }
}
layer {
  name: "conv1"
  type: "Convolution"
  bottom: "reshape"
  top: "conv1"
  param {
    lr_mult: 1
  }
  param {
    lr_mult: 0.1
  }
  convolution_param {
    num_output: 128
    pad: 0
    kernel_size: 1
    stride: 1
    weight_filler {
      type: "gaussian"
      std: 0.1
    }
    bias_filler {
      type: "constant"
      value: 0
    }
  }
}
layer {
  name: "relu1"
  type: "ReLU"
  bottom: "conv1"
  top: "relu1"
}
layer {
  name: "conv2"
  type: "Convolution"
  bottom: "relu1"
  top: "conv2"
  param {
    lr_mult: 1
  }
  param {
    lr_mult: 0.1
  }
  convolution_param {
    num_output: 64
    pad: 0
    kernel_size: 1
    stride: 1
    weight_filler {
      type: "gaussian"
      std: 0.1
    }
    bias_filler {
      type: "constant"
      value: 0
    }
  }
}
layer {
  name: "relu2"
  type: "ReLU"
  bottom: "conv2"
  top: "relu2"
}
layer {
  name: "conv3"
  type: "Convolution"
  bottom: "relu2"
  top: "conv3"
  param {
    lr_mult: 0.1
  }
  param {
    lr_mult: 0.1
  }
  convolution_param {
    num_output: 32
    pad: 1
    kernel_size: 3
    stride: 1
    weight_filler {
      type: "gaussian"
      std: 0.1
    }
    bias_filler {
      type: "constant"
      value: 0
    }
  }
}
layer {
  name: "relu3"
  type: "ReLU"
  bottom: "conv3"
  top: "relu3"
}
layer {
  name: "conv4"
  type: "Convolution"
  bottom: "relu3"
  top: "conv4"
  param {
    lr_mult: 1
  }
  param {
    lr_mult: 0.1
  }
  convolution_param {
    num_output: 32
    pad: 1
    kernel_size: 3
    stride: 1
    weight_filler {
      type: "gaussian"
      std: 0.1
    }
    bias_filler {
      type: "constant"
      value: 0
    }
  }
}
layer {
  name: "relu4"
  type: "ReLU"
  bottom: "conv4"
  top: "relu4"
}
layer {
  name: "conv5"
  type: "Convolution"
  bottom: "relu4"
  top: "conv5"
  param {
    lr_mult: 1
  }
  param {
    lr_mult: 0.1
  }
  convolution_param {
    num_output: 16
    pad: 1
    kernel_size: 3
    stride: 1
    weight_filler {
      type: "gaussian"
      std: 0.1
    }
    bias_filler {
      type: "constant"
      value: 0
    }
  }
}
layer {
  name: "relu5"
  type: "ReLU"
  bottom: "conv5"
  top: "relu5"
}
layer {
  name: "conv6"
  type: "Convolution"
  bottom: "relu5"
  top: "conv6"
  param {
    lr_mult: 0.1
  }
  param {
    lr_mult: 0.1
  }
  convolution_param {
    num_output: 16
    pad: 1
    kernel_size: 3
    stride: 1
    weight_filler {
      type: "gaussian"
      std: 0.1
    }
    bias_filler {
      type: "constant"
      value: 0
    }
  }
}
layer {
  name: "relu6"
  type: "ReLU"
  bottom: "conv6"
  top: "relu6"
}
layer {
  name: "conv7"
  type: "Convolution"
  bottom: "relu6"
  top: "conv7"
  param {
    lr_mult: 0.1
  }
  param {
    lr_mult: 0.1
  }
  convolution_param {
    num_output: 1
    pad: 1
    kernel_size: 3
    stride: 1
    weight_filler {
      type: "gaussian"
      std: 0.1
    }
    bias_filler {
      type: "constant"
      value: 0
    }
  }
}
layer {
  name: "trainLoss"
  type: "EuclideanLoss"
  bottom: "conv7"
  bottom: "label"
  top: "trainLoss"
  include {
    phase: TRAIN
  }
}
I1019 00:42:37.714174 127143 layer_factory.hpp:77] Creating layer data
I1019 00:42:37.714200 127143 net.cpp:100] Creating Layer data
I1019 00:42:37.714211 127143 net.cpp:408] data -> data
I1019 00:42:37.714247 127143 net.cpp:408] data -> label
I1019 00:42:37.714267 127143 hdf5_data_layer.cpp:79] Loading list of HDF5 filenames from: trainCNN_cr5.txt
I1019 00:42:37.714300 127143 hdf5_data_layer.cpp:93] Number of HDF5 files: 1
I1019 00:42:37.715391 127143 hdf5.cpp:32] Datatype class: H5T_FLOAT
I1019 00:42:40.199946 127143 net.cpp:150] Setting up data
I1019 00:42:40.200008 127143 net.cpp:157] Top shape: 100 1 1 204 (20400)
I1019 00:42:40.200019 127143 net.cpp:157] Top shape: 100 1 32 32 (102400)
I1019 00:42:40.200026 127143 net.cpp:165] Memory required for data: 491200
I1019 00:42:40.200040 127143 layer_factory.hpp:77] Creating layer fc1
I1019 00:42:40.200074 127143 net.cpp:100] Creating Layer fc1
I1019 00:42:40.200086 127143 net.cpp:434] fc1 <- data
I1019 00:42:40.200104 127143 net.cpp:408] fc1 -> fc1
I1019 00:42:40.207609 127143 net.cpp:150] Setting up fc1
I1019 00:42:40.207633 127143 net.cpp:157] Top shape: 100 1024 (102400)
I1019 00:42:40.207641 127143 net.cpp:165] Memory required for data: 900800
I1019 00:42:40.207659 127143 layer_factory.hpp:77] Creating layer reshape
I1019 00:42:40.207679 127143 net.cpp:100] Creating Layer reshape
I1019 00:42:40.207689 127143 net.cpp:434] reshape <- fc1
I1019 00:42:40.207697 127143 net.cpp:408] reshape -> reshape
I1019 00:42:40.207744 127143 net.cpp:150] Setting up reshape
I1019 00:42:40.207757 127143 net.cpp:157] Top shape: 100 1 32 32 (102400)
I1019 00:42:40.207765 127143 net.cpp:165] Memory required for data: 1310400
I1019 00:42:40.207773 127143 layer_factory.hpp:77] Creating layer conv1
I1019 00:42:40.207794 127143 net.cpp:100] Creating Layer conv1
I1019 00:42:40.207803 127143 net.cpp:434] conv1 <- reshape
I1019 00:42:40.207813 127143 net.cpp:408] conv1 -> conv1
I1019 00:42:40.230406 127143 net.cpp:150] Setting up conv1
I1019 00:42:40.230429 127143 net.cpp:157] Top shape: 100 128 32 32 (13107200)
I1019 00:42:40.230437 127143 net.cpp:165] Memory required for data: 53739200
I1019 00:42:40.230450 127143 layer_factory.hpp:77] Creating layer relu1
I1019 00:42:40.230463 127143 net.cpp:100] Creating Layer relu1
I1019 00:42:40.230471 127143 net.cpp:434] relu1 <- conv1
I1019 00:42:40.230481 127143 net.cpp:408] relu1 -> relu1
I1019 00:42:40.230509 127143 net.cpp:150] Setting up relu1
I1019 00:42:40.230520 127143 net.cpp:157] Top shape: 100 128 32 32 (13107200)
I1019 00:42:40.230527 127143 net.cpp:165] Memory required for data: 106168000
I1019 00:42:40.230535 127143 layer_factory.hpp:77] Creating layer conv2
I1019 00:42:40.230551 127143 net.cpp:100] Creating Layer conv2
I1019 00:42:40.230559 127143 net.cpp:434] conv2 <- relu1
I1019 00:42:40.230581 127143 net.cpp:408] conv2 -> conv2
I1019 00:42:40.231637 127143 net.cpp:150] Setting up conv2
I1019 00:42:40.231655 127143 net.cpp:157] Top shape: 100 64 32 32 (6553600)
I1019 00:42:40.231698 127143 net.cpp:165] Memory required for data: 132382400
I1019 00:42:40.231712 127143 layer_factory.hpp:77] Creating layer relu2
I1019 00:42:40.231734 127143 net.cpp:100] Creating Layer relu2
I1019 00:42:40.231742 127143 net.cpp:434] relu2 <- conv2
I1019 00:42:40.231752 127143 net.cpp:408] relu2 -> relu2
I1019 00:42:40.231781 127143 net.cpp:150] Setting up relu2
I1019 00:42:40.231802 127143 net.cpp:157] Top shape: 100 64 32 32 (6553600)
I1019 00:42:40.231822 127143 net.cpp:165] Memory required for data: 158596800
I1019 00:42:40.231829 127143 layer_factory.hpp:77] Creating layer conv3
I1019 00:42:40.231843 127143 net.cpp:100] Creating Layer conv3
I1019 00:42:40.231853 127143 net.cpp:434] conv3 <- relu2
I1019 00:42:40.231863 127143 net.cpp:408] conv3 -> conv3
I1019 00:42:40.233222 127143 net.cpp:150] Setting up conv3
I1019 00:42:40.233253 127143 net.cpp:157] Top shape: 100 32 32 32 (3276800)
I1019 00:42:40.233261 127143 net.cpp:165] Memory required for data: 171704000
I1019 00:42:40.233273 127143 layer_factory.hpp:77] Creating layer relu3
I1019 00:42:40.233286 127143 net.cpp:100] Creating Layer relu3
I1019 00:42:40.233294 127143 net.cpp:434] relu3 <- conv3
I1019 00:42:40.233316 127143 net.cpp:408] relu3 -> relu3
I1019 00:42:40.233355 127143 net.cpp:150] Setting up relu3
I1019 00:42:40.233367 127143 net.cpp:157] Top shape: 100 32 32 32 (3276800)
I1019 00:42:40.233374 127143 net.cpp:165] Memory required for data: 184811200
I1019 00:42:40.233394 127143 layer_factory.hpp:77] Creating layer conv4
I1019 00:42:40.233408 127143 net.cpp:100] Creating Layer conv4
I1019 00:42:40.233417 127143 net.cpp:434] conv4 <- relu3
I1019 00:42:40.233427 127143 net.cpp:408] conv4 -> conv4
I1019 00:42:40.233963 127143 net.cpp:150] Setting up conv4
I1019 00:42:40.233978 127143 net.cpp:157] Top shape: 100 32 32 32 (3276800)
I1019 00:42:40.233986 127143 net.cpp:165] Memory required for data: 197918400
I1019 00:42:40.233999 127143 layer_factory.hpp:77] Creating layer relu4
I1019 00:42:40.234010 127143 net.cpp:100] Creating Layer relu4
I1019 00:42:40.234017 127143 net.cpp:434] relu4 <- conv4
I1019 00:42:40.234027 127143 net.cpp:408] relu4 -> relu4
I1019 00:42:40.234055 127143 net.cpp:150] Setting up relu4
I1019 00:42:40.234066 127143 net.cpp:157] Top shape: 100 32 32 32 (3276800)
I1019 00:42:40.234083 127143 net.cpp:165] Memory required for data: 211025600
I1019 00:42:40.234091 127143 layer_factory.hpp:77] Creating layer conv5
I1019 00:42:40.234107 127143 net.cpp:100] Creating Layer conv5
I1019 00:42:40.234115 127143 net.cpp:434] conv5 <- relu4
I1019 00:42:40.234125 127143 net.cpp:408] conv5 -> conv5
I1019 00:42:40.234665 127143 net.cpp:150] Setting up conv5
I1019 00:42:40.234688 127143 net.cpp:157] Top shape: 100 16 32 32 (1638400)
I1019 00:42:40.234700 127143 net.cpp:165] Memory required for data: 217579200
I1019 00:42:40.234719 127143 layer_factory.hpp:77] Creating layer relu5
I1019 00:42:40.234735 127143 net.cpp:100] Creating Layer relu5
I1019 00:42:40.234748 127143 net.cpp:434] relu5 <- conv5
I1019 00:42:40.234763 127143 net.cpp:408] relu5 -> relu5
I1019 00:42:40.234803 127143 net.cpp:150] Setting up relu5
I1019 00:42:40.234822 127143 net.cpp:157] Top shape: 100 16 32 32 (1638400)
I1019 00:42:40.234833 127143 net.cpp:165] Memory required for data: 224132800
I1019 00:42:40.234844 127143 layer_factory.hpp:77] Creating layer conv6
I1019 00:42:40.234864 127143 net.cpp:100] Creating Layer conv6
I1019 00:42:40.234879 127143 net.cpp:434] conv6 <- relu5
I1019 00:42:40.234894 127143 net.cpp:408] conv6 -> conv6
I1019 00:42:40.236053 127143 net.cpp:150] Setting up conv6
I1019 00:42:40.236089 127143 net.cpp:157] Top shape: 100 16 32 32 (1638400)
I1019 00:42:40.236102 127143 net.cpp:165] Memory required for data: 230686400
I1019 00:42:40.236121 127143 layer_factory.hpp:77] Creating layer relu6
I1019 00:42:40.236141 127143 net.cpp:100] Creating Layer relu6
I1019 00:42:40.236155 127143 net.cpp:434] relu6 <- conv6
I1019 00:42:40.236172 127143 net.cpp:408] relu6 -> relu6
I1019 00:42:40.236217 127143 net.cpp:150] Setting up relu6
I1019 00:42:40.238152 127143 net.cpp:157] Top shape: 100 16 32 32 (1638400)
I1019 00:42:40.238188 127143 net.cpp:165] Memory required for data: 237240000
I1019 00:42:40.238204 127143 layer_factory.hpp:77] Creating layer conv7
I1019 00:42:40.238229 127143 net.cpp:100] Creating Layer conv7
I1019 00:42:40.238245 127143 net.cpp:434] conv7 <- relu6
I1019 00:42:40.238265 127143 net.cpp:408] conv7 -> conv7
I1019 00:42:40.238627 127143 net.cpp:150] Setting up conv7
I1019 00:42:40.238656 127143 net.cpp:157] Top shape: 100 1 32 32 (102400)
I1019 00:42:40.238668 127143 net.cpp:165] Memory required for data: 237649600
I1019 00:42:40.238687 127143 layer_factory.hpp:77] Creating layer trainLoss
I1019 00:42:40.238714 127143 net.cpp:100] Creating Layer trainLoss
I1019 00:42:40.238729 127143 net.cpp:434] trainLoss <- conv7
I1019 00:42:40.238744 127143 net.cpp:434] trainLoss <- label
I1019 00:42:40.238764 127143 net.cpp:408] trainLoss -> trainLoss
…
